pytorch/cnn.pth (torch, 250839 bytes, 10 tensors)

conv1.weight f4 [6, 3, 5, 5]
-0.054361187 -0.0018688329 -0.1716255 -0.19769251 -0.24238843 -0.11703966 -0.028904282 -0.09739421
-0.14005792 -0.03743833 0.006109285 -0.008573456 -0.13254775 -0.043699544 -0.1834239 -0.14917976
-0.1491548 -0.18219708 -0.17751817 -0.119545 0.051446576 0.07599553 0.06476167 0.09760415
0.057925582 -0.014307086 -0.0759524 -0.061427347 0.011406966 0.07290813 -0.09465883 -0.031410895
0.017014572 0.058288965 -0.114510156 -0.03176816 0.064443864 -0.0989324 -0.1100378 -0.0681093
-0.03208774 -0.113351166 0.066348575 -0.12040235 -0.1260385 0.12995848 0.13538054 0.017540256
-0.02244628 0.046655722 0.14593543 0.07968758 0.050035182 0.14153329 0.060631678 0.0783376
0.040919613 0.05700013 0.017215138 0.017248396 0.18342344 0.1017545 0.11015779 0.12500936
0.056178086 0.213274 0.14152803 0.18226914 0.13528635 -0.01523048 0.22934952 0.23363762
0.23473014 0.09880234 0.077588536 -0.06587243 -0.01698935 -0.053187553 -0.009801536 -0.10401671
0.14011325 0.11682305 -0.039037 -0.08476536 -0.15726164 0.23247136 0.113775134 -0.1446099
-0.0874949 -0.19464996 0.117924295 0.011945189 -0.17611864 -0.048322804 0.017980197 0.12218056
0.06741043 -0.19028246 -0.08716613 0.09128781 0.0949237 0.059923466 0.09900472 -0.07841041
-0.04310806 0.19265173 0.0012545707 0.06540207 -0.18816654 -0.20832549 0.30843112 0.07406023
-0.052841567 -0.13004178 -0.15970625 0.14607328 0.21272038 -0.1537702 -0.030047642 -0.048054524
0.15065809 0.020778853 -0.036048856 -0.012212634 0.15662995 -0.042947356 -0.06134769 0.087424316
-0.040834792 -0.1005691 0.062268183 0.07014773 0.1155425 -0.18874596 -0.12944308 0.33775723
0.07652571 -0.047005814 -0.20686139 -0.1590687 0.18148927 0.16920736 -0.07292127 -0.17376293
0.018269148 0.15019372 0.08974357 -0.116161056 -0.17542408 0.071930416 0.11877501 0.046325862
0.16584423 0.097114556 0.03841167 0.1507689 0.050058007 0.10593862 -0.037124902 -0.014219918
0.07027076 0.1747407 0.13855958 0.025839241 0.06482345 0.07353559 0.20458956 0.13677317
-0.030670429 0.030293448 0.12115302 0.05871205 0.10822298 -0.014237895 0.11521011 0.055767126
-0.01712825 0.081069864 0.016725967 -0.14452346 0.1031704 0.12066056 -0.041234147 0.03766926
-0.014923332 -0.005298658 0.028506668 0.08527146 0.065981545 -0.09700723 -0.026581869 0.031152954
-0.010020439 -0.10151482 -0.017304385 0.15094012 0.10547743 0.11625109 -0.07344853 0.03750077
0.01106326 0.028392412 0.036845688 0.15585965 0.048952494 0.058102563 0.22590214 0.0042451387
-0.039255526 -0.098229595 0.21818624 0.12575926 0.08926674 0.11937374 -0.04497502 0.18192111
0.16572972 0.08690641 0.020643359 0.11052193 0.14276285 0.017024845 0.13681707 0.14100997
-0.03219046 0.016450966 0.21115653 -0.025706317 -0.024323907 -0.066491865 0.19689319 0.051357653
0.03289458 0.1251413 0.12777652 0.010050467 0.15216556 0.052094705 -0.07203967 0.02347573
-0.024698284 0.04466666 0.115418516 0.097627446 -0.09223781 -0.014412938 -0.045397118 -0.09777501
-0.18367153 -0.133359 0.16327256 0.077151366 0.034630455 0.16175106 0.08507111 -0.044668548
00000000: d6a9 5ebd a0f3 f4ba 98be 2fbe e86f 4abe
00000010: ac34 78be 7db2 efbd acc8 ecbc 9e76 c7bd
00000020: 586b 0fbe ef58 19bd 6630 c83b ae77 0cbc
00000030: 99ba 07be 4bfe 32bd 7ad3 3bbe 94c2 18be
00000040: 09bc 18be df91 3abe 53c7 35be 02d4 f4bd
00000050: a5b9 523d 8ba3 9b3d c4a1 843d afe4 c73d
00000060: 6043 6d3d 4568 6abc ef8c 9bbd 3e9b 7bbd
00000070: 48e4 3a3c dc50 953d 7ddc c1bd b6a8 00bd
00000080: 2562 8b3c 69c0 6e3d 4d84 eabd 551f 02bd
00000090: 25fb 833d 129d cabd 805b e1bd e47c 8bbd
000000a0: 6f6e 03bd a824 e8bd c3e1 873d 8295 f6bd
000000b0: 3d10 01be d613 053e 32a1 0a3e 95b0 8f3c
000000c0: 43e1 b7bc 121a 3f3d 1970 153e 3e33 a33d
000000d0: b1f1 4c3d 1aee 103e ec58 783d 776f a03d
000000e0: 539b 273d f878 693d c306 8d3c 824c 8d3c
000000f0: 5bd3 3b3e aa64 d03d 689a e13d 7402 003e
00000100: fe1a 663d 8064 5a3e b9ec 103e c3a4 3a3e
00000110: 8188 0a3e 4389 79bc 9ada 6a3e b33e 6f3e
00000120: 195d 703e e258 ca3d bde6 9e3d 20e8 86bd
00000130: 402d 8bbc 31db 59bd 9f96 20bc b606 d5bd
00000140: d979 0f3e ec40 ef3d 43e5 1fbd 7699 adbd
00000150: 3209 21be f90c 6e3e f002 e93d 9e14 14be
00000160: 8730 b3bd 5252 47be 4b82 f13d c1b5 433c
00000170: 7258 34be 22ee 45bd 354b 933c cd39 fa3d
00000180: 7b0e 8a3d 68d9 42be 2884 b2bd 1af5 ba3d
00000190: 5b67 c23d 4f72 753d fdc2 ca3d a395 a0bd
000001a0: 1492 30bd 7f46 453e 6870 a43a 85f1 853d
000001b0: bbae 40be 4753 55be afea 9d3e e4ac 973d
000001c0: 6670 58bd ac29 05be 098a 23be 3c94 153e
000001d0: 5fd3 593e ef75 1dbe 7926 f6bc d2d4 44bd
000001e0: 1d46 1a3e 6a38 aa3c f7a7 13bd 8017 48bc
000001f0: 9a63 203e 91e9 2fbd b747 7bbd 850b b33d
00000200: 6242 27bd 2cf7 cdbd ec0c 7f3d 9da9 8f3d
00000210: 8ca1 ec3d 9f46 41be ba8c 04be 84ee ac3e
00000220: 83b9 9c3d 2b89 40bd 79d3 53be e8e2 22be
00000230: 53d8 393e b244 2d3e bf57 95bd e9ee 31be
00000240: 2ea9 953c 62cc 193e 7acb b73d d9e5 edbd
00000250: 5fa2 33be 4150 933d 5040 f33d 30c0 3d3d
00000260: 12d3 293e ffe3 c63d 8e55 1d3d 2a63 1a3e
00000270: a009 4d3d 59f6 d83d 4810 18bd a9fa 68bc
00000280: 1eea 8f3d 3aef 323e 90e2 0d3e d1ac d33c
00000290: 28c2 843d d499 963d ed7f 513e 440e 0c3e
000002a0: 8d40 fbbc f729 f83c 131f f83d 0c7c 703d
000002b0: 02a4 dd3d 0f46 69bc 47f3 eb3d 126c 643d
000002c0: 8b50 8cbc f507 a63d e504 893c f5fd 13be
000002d0: 014b d33d e21c f73d 23e5 28bd 154b 1a3d
000002e0: fe80 74bc 5da0 adbb d186 e93c cea2 ae3d
000002f0: 5521 873d baab c6bd 38c2 d9bc 7b34 ff3c
00000300: c42c 24bc 00e7 cfbd edc1 8dbc 0c90 1a3e
00000310: 8d04 d83d 0d15 ee3d 2f6c 96bd 689a 193d
00000320: ad42 353c 3497 e83c 81eb 163d ac99 1f3e
00000330: 6982 483d f4fc 6d3d e452 673e ce1a 8b3b
00000340: 67ca 20bd 992c c9bd 376c 5f3e 09c7 003e
00000350: 7bd1 b63d 387a f43d ba37 38bd 8749 3a3e
00000360: 0db5 293e fdfb b13d 431c a93c 5259 e23d
00000370: 6d30 123e b077 8b3c c619 0c3e eb64 103e
00000380: 25da 03bd 2dc4 863c 6b39 583e 0e96 d2bc
00000390: ee42 c7bc e32c 88bd 5e9e 493e 675c 523d
000003a0: 78bc 063d 0a25 003e d9d7 023e b7aa 243c
000003b0: 4ad1 1b3e 4261 553d 8989 93bd 2d50 c03c
000003c0: 0e54 cabc 63f4 363d 8b60 ec3d e6f0 c73d
000003d0: 2de7 bcbd 3e24 6cbc 54f2 39bd 443e c8bd
000003e0: 6414 3cbe 438f 08be ec30 273e 8901 9e3d
000003f0: aad8 0d3d 12a2 253e c339 ae3d 5ef6 36bd

conv1.bias f4 [6]
0.46632594 0.40162703 0.41480497 -0.0363357 0.02568936 -0.14733551
00000000: 46c2 ee3e 0fa2 cd3e 5161 d43e bed4 14bd
00000010: 7e72 d23c 1fdf 16be

conv2.weight f4 [16, 6, 5, 5]
0.08133358 -0.005966796 -0.060032256 0.00018821792 0.06970562 0.111347295 0.027001478 0.043491248
0.07635111 -0.03512196 0.14068358 0.17689858 0.16395839 0.06254613 0.017603483 0.08691981
0.025567139 -0.008810329 -0.026401918 0.02440164 0.107014365 0.11597571 -0.028406145 0.08541888
0.045445625 -0.005069044 -0.06877957 -0.1096752 -0.046085905 0.04618362 -0.07957058 -0.12973265
-0.074140795 -0.08038092 -0.12024134 0.06375898 0.02075822 -0.004587681 -0.11944645 -0.09119645
-0.07780497 -0.13102387 -0.038177963 -0.03392493 -0.06602116 0.034233224 0.00249734 -0.103938065
-0.05772227 -0.05473209 -0.04275994 -0.031680107 -0.052756738 -0.014085915 -0.013693541 0.008456549
-0.09879548 -0.101425104 -0.10226751 0.040303193 0.048228204 -0.048758857 -0.053248767 -0.047357664
-0.04875176 0.016428636 0.06606572 0.09927858 0.10594195 -0.020356538 0.1491638 0.04519918
-0.0046994654 0.056556087 -0.08441092 0.11971175 0.08220551 0.097577825 0.09479589 0.07243606
0.073270425 0.011729822 -0.010223591 0.070490345 0.09773459 -0.032137886 0.077822946 0.021710604
0.05617871 -0.01995294 0.07610601 0.13858978 0.12712336 0.11624879 0.022070622 0.05875738
0.07285297 -0.014536472 0.03149556 -0.05238021 0.00020215283 0.07308636 -0.01787431 0.08957062
0.13110532 0.10519822 0.0016231386 0.09015332 0.10308003 0.09254289 0.00041670815 0.06609527
-0.0034777327 0.045749582 0.07024585 0.07590917 -0.02984882 0.014156019 -0.008686832 0.035034146
-0.03337748 0.032044865 0.09744372 0.1589797 0.13508143 -0.033412494 0.1015825 0.0074642682
0.06532529 0.060407836 0.082174286 0.0023179248 -0.027296796 0.02817793 0.14635938 -0.04216653
0.070953555 0.06297336 0.06693107 0.038085807 -0.020759119 -0.03742279 -0.005435085 0.04197659
0.0965275 0.015982347 0.025571411 0.10023491 0.15759358 0.17440279 0.023107719 -0.03177685
-0.02761828 0.07957108 -0.04205686 0.0074630044 0.03378578 -0.05010414 0.063583836 -0.048971932
-0.026661597 0.011059591 0.024403943 -0.05123538 -0.03089468 -0.0131672425 -0.044338327 -0.066427395
-0.052099142 0.01222736 -0.0072516636 0.027621808 0.048334453 -0.02482704 0.03421309 -0.022682056
0.0058020474 -0.012480637 0.032297976 0.006313656 -0.11795442 -0.037889767 -0.03917628 -0.03500579
0.06657191 -0.071436584 -0.07678537 -0.059490923 -0.04161422 -0.03682311 -0.0015866463 -0.005883197
0.011086212 0.02739627 0.024228474 -0.040013894 0.014443194 0.033439443 -0.07934042 0.05733917
-0.025469974 -0.0856237 0.049669012 0.027115129 0.0720279 -0.07571647 0.008118711 -0.03013213
-0.009060785 0.054503668 -0.09380089 0.010968463 0.060054995 -0.0024316101 0.046319515 -0.005348156
0.05456036 0.04530417 0.05903829 -0.010628607 -0.09480607 0.02544545 0.021690616 0.0014515619
0.0058130603 -0.027607756 0.083778426 0.05352806 0.07152727 0.11568032 -0.06636264 0.016284881
0.041193847 0.091329664 0.06518822 0.050729685 0.016898297 0.015273941 0.016245492 -0.03174843
0.020935137 -0.048609387 0.08780502 0.052071214 0.050321095 0.033153065 0.06688311 0.0775209
0.0048273886 0.02460316 0.10175768 0.022272822 0.06711591 0.04643641 0.09731389 0.041837703
00000000: 3892 a63d 1d85 c3bb 62e4 75bd 5d5c 4539
00000010: d2c1 8e3d 0d0a e43d 3432 dd3c e123 323d
00000020: f95d 9c3d 0bdc 0fbd 5b0f 103e e724 353e
00000030: b5e4 273e 2f18 803d 2e35 903c 0303 b23d
00000040: 2d72 d13c 3359 10bc d648 d8bc f3e5 c73c
00000050: 592a db3d ac84 ed3d 01b4 e8bc 18f0 ae3d
00000060: 3125 3a3d 391a a6bb 4edc 8cbd 649d e0bd
00000070: 93c4 3cbd 092b 3d3d e6f5 a2bd a3d8 04be
00000080: 21d7 97bd c09e a4bd 1741 f6bd 1194 823d
00000090: 250d aa3c 4254 96bb 57a0 f4bd 34c5 babd
000000a0: 3658 9fbd 1f2b 06be 7f60 1cbd def4 0abd
000000b0: 1a36 87bd 2338 0c3d 6aaa 233b 7bdd d4bd
000000c0: 306e 6cbd c22e 60bd 0c25 2fbd 00c3 01bd
000000d0: 7317 58bd 9cc8 66bc e05a 60bc 568d 0a3c
000000e0: 4955 cabd f7b7 cfbd a171 d1bd f614 253d
000000f0: f08a 453d 5eb7 47bd 611b 5abd 1cfa 41bd
00000100: edaf 47bd 5995 863c 774d 873d 9152 cb3d
00000110: 18f8 d83d c1c2 a6bc 65be 183e c622 393d
00000120: f9fd 99bb 5ba7 673d a2df acbd 6f2b f53d
00000130: 5d5b a83d e2d6 c73d 5924 c23d 5b59 943d
00000140: ce0e 963d 702e 403c d980 27bc 3e5d 903d
00000150: 1329 c83d 04a3 03bd a361 9f3d 70da b13c
00000160: a61b 663d 5974 a3bc 78dd 9b3d 7bea 0d3e
00000170: a02c 023e d813 ee3d 73cd b43c 94ab 703d
00000180: f033 953d 622a 6ebc 7d01 013d a28c 56bd
00000190: fdf8 5339 4dae 953d 256d 92bc cd70 b73d
000001a0: 7940 063e 2a72 d73d 7ebf d43a 4ea2 b83d
000001b0: 9f1b d33d 2087 bd3d 9f79 da39 f55c 873d
000001c0: acea 63bb ea63 3b3d 0edd 8f3d 4476 9b3d
000001d0: 8385 f4bc a6ee 673c 3753 0ebc f77f 0f3d
000001e0: d3b6 08bd 7a41 033d 9390 c73d 93cb 223e
000001f0: c952 0a3e 8adb 08bd 7c0a d03d d296 f43b
00000200: 44c9 853d 356e 773d fe4a a83d 53e8 173b
00000210: 889d dfbc 67d5 e63c 3cdf 153e d0b6 2cbd
00000220: 1950 913d 2df8 803d 2813 893d ddff 1b3d
00000230: 070f aabc a448 19bd cc18 b2bb a5ef 2b3d
00000240: 36b0 c53d 69ed 823c 237b d13c f647 cd3d
00000250: 3660 213e a596 323e 664c bd3c 7128 02bd
00000260: bb3f e2bc 2af6 a23d d043 2cbd 388c f43b
00000270: f562 0a3d 003a 4dbd 3e38 823d cb96 48bd
00000280: 6c69 dabc 4933 353c c7ea c73c 31dc 51bd
00000290: d716 fdbc 6bbb 57bc 1b9c 35bd 160b 88bd
000002a0: e965 55bd 4455 483c 5d9f edbb 2147 e23c
000002b0: 59fa 453d 1462 cbbc 0623 0c3d b8cf b9bc
000002c0: 1a1f be3b 967b 4cbc e24a 043d c9e2 ce3b
000002d0: 1692 f1bd 4d32 1bbd 4f77 20bd 3b62 0fbd
000002e0: db56 883d 584d 92bd a641 9dbd c1ac 73bd
000002f0: ac73 2abd d4d3 16bd 04f7 cfba d5c7 c0bb
00000300: f1a2 353c 246e e03c cb7a c63c 9ce5 23bd
00000310: 25a3 6c3c ccf7 083d 3b7d a2bd 7adc 6a3d
00000320: 68a6 d0bc 7a5b afbd bc71 4b3d 8c20 de3c
00000330: 5d83 933d 3d11 9bbd 5804 053c a8d7 f6bc
00000340: b073 14bc 3d3f 5f3d ae1a c0bd 11b5 333c
00000350: 3afc 753d a65b 1fbb 88b9 3d3d 963f afbb
00000360: af7a 5f3d de90 393d 22d2 713d 9c23 2ebc
00000370: af29 c2bd fa72 d03c 85b0 b13c 5642 be3a
00000380: 7c7b be3b a929 e2bc 0694 ab3d 3d40 5b3d
00000390: e47c 923d cee9 ec3d 23e9 87bd df67 853c
000003a0: e1ba 283d 0c0b bb3d 6781 853d eec9 4f3d
000003b0: 4c6e 8a3c 8d3f 7a3c 4415 853c a40a 02bd
000003c0: 2a80 ab3c a31a 47bd 1ed3 b33d a048 553d
000003d0: 7e1d 4e3d 82cb 073d 03fa 883d 47c3 9e3d
000003e0: 122f 9e3b 918c c93c 5566 d03d 7e75 b63c
000003f0: 1174 893d 1b34 3e3d 814c c73d 035e 2b3d

conv2.bias f4 [16]
-0.07786976 -0.13137332 0.013802951 0.16895166 0.06491119 0.12189137 -0.02685856 -0.024660818
-0.013072647 0.057136226 0.059066415 0.09989726 -0.09135674 -0.11333565 0.06859449 0.00465928
00000000: 2e7a 9fbd ba86 06be c625 623c aa01 2d3e
00000010: 28f0 843d 2fa2 f93d 7c06 dcbc 7c05 cabc
00000020: a82e 56bc ad07 6a3d a0ef 713d ef96 cc3d
00000030: 3e19 bbbd 851c e8bd 457b 8c3d e0ac 983b

fc1.weight f4 [120, 400]
-0.012795004 1.29132295e-05 0.014496442 -0.0017950108 0.048056558 0.014048527 -0.008222128 0.0237417
-0.033505503 0.045136195 -0.032746613 0.004260337 -0.0055070417 -0.03630242 0.0043256986 -0.014514249
-0.030859465 0.016573383 -0.021148108 -0.0038688262 0.011348712 0.026015548 -0.027050596 0.04957306
0.051385246 0.029553303 -0.037323896 -0.052092 0.015709363 0.03407459 -0.041142583 -0.0013195483
-0.022382453 -0.037262194 0.023416871 -0.010401839 -0.04649666 0.036334567 0.008466854 -0.02984101
-0.00848478 -0.043272633 0.03810569 -0.04144044 0.03242648 0.013734771 -0.050745077 -0.02581149
0.026856208 -0.022683835 0.008421266 0.0036290495 0.01442846 -0.037755404 -0.04241161 -0.021581752
0.016686179 0.023036374 0.047836564 0.049775712 0.047814507 -0.021930238 0.05042267 -0.0029190665
0.020114766 0.003400623 -0.044334065 0.017147316 -0.024629233 0.0070007094 -0.007421104 0.051887516
-0.0066412706 -0.040733594 -0.0015926143 -0.018595772 0.016853666 -0.0443122 -0.026984828 -0.026574053
0.008671825 0.047376897 -0.04648718 -0.042215016 -0.041143518 0.02327819 0.0006033026 -0.044679113
0.010005425 -0.020987876 -0.020649413 0.012545924 0.048085902 -0.0130577 -0.011879381 0.0038582536
0.05617284 0.0700334 -0.0069124345 -0.0222297 0.04459128 -0.016873104 -0.010200179 0.007315453
0.00091310445 -0.032061946 0.03682707 -0.02510481 0.035229653 0.039925728 0.00022256577 -0.00747241
-0.026604671 -0.037365478 -0.0031329326 0.050520707 -0.01679877 0.047630034 0.019026017 0.040539194
-0.007281189 0.04215318 0.06508632 0.07177147 0.031892233 0.036302846 -0.026616484 0.032008756
-0.04364011 -0.027802685 0.023007479 0.011438777 -0.04119081 -0.056034144 0.022865355 -0.03951983
0.043405745 -0.0010355707 -0.017813385 -0.013198401 -0.04059822 0.05020095 -0.0059542926 0.030931134
0.00065048336 -0.06406785 0.003135672 -0.0028444598 0.040013015 0.01662706 -0.0068894555 0.018411482
-0.0071115824 0.0150047615 0.016998194 -0.034505904 0.0372571 0.04338862 0.043927334 -0.0350973
0.044134192 0.015657736 0.022378974 0.006951328 -0.0014258526 0.022339536 0.010223583 -0.009031654
0.028828539 0.03107198 -0.02542403 -0.010330464 -0.033084076 0.0024149336 -0.00206922 -0.018833693
-0.0060233055 0.0022280472 -0.008613612 -0.029236512 0.04981967 -0.034594066 -0.05217525 -0.013646702
0.0077401428 0.007761389 -0.03228957 0.04205456 0.019698983 0.01181475 0.009820321 0.040457066
0.03819 0.035021976 -0.008225795 -0.048607126 -0.026681332 0.027075892 0.014552921 -0.07015533
-0.007005389 -0.03839415 -0.008001021 -0.044305634 -0.014060947 -0.019171469 0.0010781306 -0.0037761827
-0.03283579 -0.033658084 0.04484887 -0.025026496 0.02689292 -0.011820581 -0.017672729 -0.053857066
0.0029190471 -0.003690358 0.011707203 0.0034091834 -0.029419957 -0.034173556 -0.015405939 -0.00588051
0.018461343 -0.031883966 0.0008659448 -0.007244213 0.039150145 0.0033423756 -0.013220093 0.021188967
-0.006102711 -0.0018519573 -0.02307463 -0.022469299 0.047880117 -0.025093116 0.012990915 -0.02524574
0.021036707 0.048343264 0.008865448 0.025521742 -0.025172599 0.023740344 0.042218477 -0.039621543
-0.031904183 0.057071265 0.026193645 -0.025039684 0.021318305 0.05037895 -0.029405454 0.005367663
00000000: 23a2 51bc e6a5 5837 7c82 6d3c 9146 ebba
00000010: f4d6 443d cb2b 663c 1bb6 06bc f47d c23c
00000020: 113d 09bd bbe0 383d 5021 06bd 4c9a 8b3b
00000030: 6a74 b4bb d9b1 14bd 97be 8d3b 2ccd 6dbc
00000040: fdcc fcbc e7c4 873c cc3e adbc 228c 7dbb
00000050: f3ef 393c 8f1e d53c 3699 ddbc 1f0d 4b3d
00000060: 5679 523d c519 f23c f1e0 18bd 6c5e 55bd
00000070: ecb0 803c cc91 0b3d 2085 28bd b2f4 acba
00000080: 685b b7bc 3ea0 18bd bdd4 bf3c 7a6c 2abc
00000090: 4873 3ebd 8ed3 143d 8fb8 0a3c 2275 f4bc
000000a0: bf03 0bbc a53e 31bd b614 1c3d 73bd 29bd
000000b0: a1d1 043d ce07 613c 12da 4fbd 9e72 d3bc
000000c0: 8d01 dc3c 73d3 b9bc 5af9 093c 59d5 6d3b
000000d0: 5965 6c3c 69a5 1abd ccb7 2dbd 37cc b0bc
000000e0: 74b1 883c c7b6 bc3c 46f0 433d 9ee1 4b3d
000000f0: 25d9 433d 0ba7 b3bc 0088 4e3d cf4d 3fbb
00000100: b9c7 a43c fddc 5e3b a397 35bd 8778 8c3c
00000110: 3fc3 c9bc 3566 e53b bb2c f3bb 0188 543d
00000120: 049f d9bb 45d8 26bd 45bf d0ba 2956 98bc
00000130: b310 8a3c b680 35bd 490f ddbc d4b1 d9bc
00000140: 4514 0e3c 470e 423d 5769 3ebd a7e9 2cbd
00000150: 1b86 28bd e7b1 be3c f426 1e3a 7201 37bd
00000160: cbed 233c c4ee abbc f528 a9bc 6b8d 4d3c
00000170: b9f5 443d f7ef 55bc bca1 42bc c1da 7c3b
00000180: 7e15 663d ac6d 8f3d b481 e2bb 0f1b b6bc
00000190: 59a5 363d 7739 8abc a71e 27bc 78b6 ef3b
000001a0: 675d 6f3a 6353 03bd fbd7 163d 9aa8 cdbc
000001b0: f84c 103d 2989 233d 8b60 6939 1edb f4bb
000001c0: 0af2 d9bc 8b0c 19bd e351 4dbb cdee 4e3d
000001d0: 939d 89bc b617 433d 73dc 9b3c 6d0c 263d
000001e0: 0a97 eebb d0a8 2c3d fa4b 853d ecfc 923d
000001f0: 6ea1 023d 4bb2 143d d00a dabc 9d1b 033d
00000200: f9bf 32bd 75c2 e3bc 2e7a bc3c b569 3b3c
00000210: b2b7 28bd 0f84 65bd 2050 bb3c 8cdf 21bd
00000220: 39ca 313d fdbb 87ba 60ed 91bc 1b3e 58bc
00000230: 524a 26bd 839f 4d3d 3a1c c3bb 4a63 fd3c
00000240: 3385 2a3a 0136 83bd d97f 4d3b 1e6a 3abb
00000250: b0e4 233d 7935 883c f1c0 e1bb add3 963c
00000260: 4708 e9bb 88d6 753c cc3f 8b3c 1056 0dbd
00000270: e79a 183d 44b8 313d 26ed 333d 30c2 0fbd
00000280: 0ec6 343d a744 803c 1c54 b73c f7c7 e33b
00000290: ade3 baba 6701 b73c d180 273c 81f9 13bc
000002a0: d429 ec3c aa8a fe3c 0e46 d0bc 1b41 29bc
000002b0: 2b83 07bd dd43 1e3b c09b 07bb 1e49 9abc
000002c0: 265f c5bb 6e04 123b 1b20 0dbc 6981 efbc
000002d0: b60f 4c3d 82b2 0dbd b7b5 55bd 6b96 5fbc
000002e0: 06a1 fd3b 4053 fe3b 1142 04bd 6741 2c3d
000002f0: c35f a13c a792 413c 69e5 203c 4fb6 253d
00000300: 1e6d 1c3d 3473 0f3d 7cc5 06bc 4418 47bd
00000310: cf92 dabc 43ce dd3c 606f 6e3c 99ad 8fbd
00000320: 768d e5bb 2f43 1dbd b716 03bc d379 35bd
00000330: e35f 66bc 7c0d 9dbc 0f50 8d3a d579 77bb
00000340: d27e 06bd 0fdd 09bd 73b3 373d 5e04 cdbc
00000350: 8a4e dc3c 1cab 41bc 66c6 90bc 3a99 5cbd
00000360: 7c4d 3f3b efd9 71bb 92cf 3f3c 9b6c 5f3b
00000370: 1f02 f1bc 92f9 0bbd 3169 7cbc 4bb1 c0bb
00000380: 3e3c 973c c398 02bd 9200 633a dd60 edbb
00000390: e75b 203d c20b 5b3b 1799 58bc 7c94 ad3c
000003a0: 40f9 c7bb 60bd f2ba 0207 bdbc 8911 b8bc
000003b0: f11d 443d 1490 cdbc d9d7 543c 27d0 cebc
000003c0: 2c55 ac3c 9603 463d 6240 113c f912 d13c
000003d0: c436 cebc 1c7b c23c 48ed 2c3d 334a 22bd
000003e0: f6ad 02bd 8fc3 693d 0e94 d63c 0620 cdbc
000003f0: baa3 ae3c 285a 4e3d b5e3 f0bc 39e3 af3b

fc1.bias f4 [120]
0.047142413 0.01965497 0.13730024 -0.0040849135 0.012224887 0.0020856685 -0.050736602 -0.05496695
-0.026201224 -0.025348397 0.019780546 0.051842984 0.013510814 0.09988585 0.033220045 -0.0034365682
-0.0152769 -0.04362099 0.007458751 0.0113297505 -0.027221754 -0.008846477 -0.021258807 -0.027561631
-0.0058085443 0.020481309 -0.04295326 0.07167923 0.042395923 0.0732416 0.034999534 -0.042078402
-0.09040387 -0.044609115 -0.01657018 0.055306297 0.0046215034 0.0021862523 0.013478446 -0.05805977
0.081016295 -0.043773364 -0.00119878 -0.046295334 -0.012331227 -0.040194713 0.022437325 -0.07627565
-0.02123831 -0.048451062 -0.012545391 0.036526214 0.08334549 -0.0066516805 -0.010059634 0.007375665
-0.030745253 -0.0055154487 0.009845672 0.044384267 -0.010342791 -0.001784349 0.04921536 -0.05989494
0.0056883665 -0.009997009 -0.022000952 0.01872676 -0.0396633 0.02117026 0.006207809 -0.0053722044
-0.010425758 0.018912174 0.0111267995 0.012478186 0.04769153 0.06071347 0.028376916 -0.046025384
-0.056013603 -0.04372385 0.009065832 0.050743178 0.0041769375 -0.018701058 -0.02836258 -0.0037347176
0.030539863 0.026598997 -0.02164014 0.033935055 -0.03917533 0.0383161 0.0030764537 0.06736271
-0.07987749 -0.048947744 -0.044892408 0.040131036 0.08245821 0.007788592 -0.008928828 -0.001803725
0.016144926 0.12303255 -0.093626566 -0.00017789564 0.02042899 -0.02427 0.0659353 -0.06267814
0.0073710787 0.0021383474 -0.0029577557 0.04776497 -0.06501312 0.040436056 -0.021754874 -0.044463973
00000000: 6718 413d 7603 a13c 6f98 0c3e bdda 85bb
00000010: e44a 483c b6af 083b 2fd1 4fbd 0625 61bd
00000020: f3a3 d6bc 71a7 cfbc d00a a23c 4f59 543d
00000030: 765c 5d3c f490 cc3d be11 083d 0c38 61bb
00000040: f64b 7abc ecab 32bd 8a68 f43b 6ba0 393c
00000050: 2800 dfbc d0f0 10bc f326 aebc eec8 e1bc
00000060: 9a55 bebb 6bc8 a73c c2ef 2fbd 8fcc 923d
00000070: 59a7 2d3d b1ff 953d ac5b 0f3d 675a 2cbd
00000080: aa25 b9bd 0cb8 36bd 30be 87bc db88 623d
00000090: fb6f 973b 3a47 0f3b b3d4 5c3c 15d0 6dbd
000000a0: dfeb a53d b34b 33bd 6220 9dba 2da0 3dbd
000000b0: ea08 4abc 36a3 24bd 7bce b73c 6836 9cbd
000000c0: f7fb adbc 9f74 46bd 2f8b 4dbc 839c 153d
000000d0: 0ab1 aa3d 57f6 d9bb 2ad1 24bc 90af f13b
000000e0: 78dd fbbc f0ba b4bb be4f 213c 47cc 353d
000000f0: cf74 29bc d1e0 e9ba 0c96 493d 6654 75bd
00000100: 7a65 ba3b 7fca 23bc 573b b4bc dd68 993c
00000110: fc75 22bd 416d ad3c e06a cb3b 5109 b0bb
00000120: ccd0 2abc b4ed 9a3c 2e4d 363c 4e71 4c3c
00000130: 3258 433d b0ae 783d b576 e83c 1d85 3cbd
00000140: 856e 65bd c817 33bd db88 143c 14d8 4f3d
00000150: b1de 883b f632 99bc a458 e8bc 2ac2 74bb
00000160: bc2e fa3c 24e6 d93c aa46 b1bc 7cff 0a3d
00000170: 5076 20bd 58f1 1c3d 549e 493b 76f5 893d
00000180: cf96 a3bd 6e7d 48bd 1ae1 37bd 7160 243d
00000190: dadf a83d 7237 ff3b 384a 12bc f86a ecba
000001a0: 5d42 843c 7df8 fb3d 49bf bfbd 7f89 3ab9
000001b0: b25a a73c e1d1 c6bc 1609 873d 665d 80bd
000001c0: 1789 f13b 8423 0c3b e8d6 41bb 34a5 433d
000001d0: 9925 85bd 47a0 253d 4737 b2bc db1f 36bd

fc2.weight f4 [84, 120]
-0.06246886 -0.06912266 -0.009453238 0.034047287 0.09373463 0.014544129 -0.08700576 0.025625514
0.07310369 -0.015015665 0.025072325 -0.039429214 0.049891945 0.049154896 -4.671823e-05 0.033509232
-0.052118763 0.05547874 -0.07432196 -0.05647517 0.069692075 0.08699214 -0.008275 0.06379864
-0.06491902 0.042278804 -0.025533171 -0.027652627 -0.073859304 0.044939764 0.02141441 0.032337733
-0.0454523 0.020263787 -0.037697997 -0.00072259165 0.07467099 -0.0094563225 0.010023311 -0.011688278
-0.033083025 0.090865284 1.0814729e-05 0.0518836 -0.056118004 0.08264639 0.087261274 -0.015437763
-0.012812719 -0.0124105485 0.078238025 -0.022100637 0.012049749 -0.08226996 0.009281102 0.065832905
0.06542228 -0.0005447871 -0.06842064 0.045443043 -0.05444702 0.028374013 -0.08101821 -0.03654634
-0.0007243353 0.026208412 0.08114318 0.007855534 -0.04357986 0.0024540091 -0.083430864 -0.062870935
0.0071167047 0.046986222 0.014569494 0.08035201 -0.06532171 0.06353723 -0.027605837 -0.010475647
-0.006061628 -0.03114162 0.0011444 0.06731672 0.021466125 -0.030790115 0.06735323 -0.021301836
-0.061283026 -0.058420125 -0.041437536 0.067375414 0.046358023 0.013865237 -0.0071785273 -0.07073278
0.0011995778 0.091014154 0.004882971 0.08827712 0.07549155 -0.09437969 -0.09436005 0.023645153
-0.06913139 0.059295572 -0.09650771 0.09189485 0.069495216 -0.0639227 0.095493674 -0.10752793
-0.029187832 -0.091770016 -0.03854281 -0.035136733 -0.027917786 0.0803705 0.07041895 -0.07896794
0.024147142 0.0825651 -0.027493438 0.017944487 0.054172825 0.029503284 0.02406274 0.003884895
-0.038168725 0.09325968 -0.05973574 0.047313888 -0.03381678 0.056161035 0.027753655 0.039935663
-0.061378945 0.044599768 -0.026281921 -0.05419507 -0.05084679 0.03145422 0.062807836 -0.025583861
0.010984086 0.045091763 0.019029245 -0.06439593 -0.04557998 0.07388 -0.0046794806 -0.015217697
-0.032976553 -0.04367559 -0.03292631 0.0823799 0.06402459 -0.010626907 0.005212977 -0.002145846
-0.016283724 0.088105544 -0.035903413 -0.04093146 -0.034167137 0.0061700824 -0.0034347698 0.06520099
-0.025759362 -0.087548204 0.048187327 -0.011717765 -0.04294731 -0.06744449 0.091912456 -0.08076175
-0.013791718 -0.046768546 0.09064317 -0.016529672 0.043464396 0.03640416 0.06179678 -0.049303815
-0.06951971 0.0735056 0.011783457 0.04910396 0.03366952 0.05721746 0.005362347 -0.06813014
-0.0882463 0.06397798 0.071070835 -0.0508357 -0.06996551 -0.007615941 0.0074256537 -0.023697408
0.05985246 -0.0529494 -0.03585331 -0.046663623 0.035047494 -0.045482308 0.016690567 0.087567955
-0.011078363 0.025805004 0.05428654 -0.053943343 -0.02242762 0.07273383 0.035864137 -0.060521957
-0.074397884 0.028653705 0.06291116 -0.06598622 -0.04123472 -0.032562483 -0.08835731 -0.019726506
-0.05186606 0.0039446414 -0.07523493 -0.00017714397 0.04263901 -0.035810813 -0.060617216 -0.052233275
0.020687545 -0.015378695 0.029738748 0.004846839 0.02372152 0.06011918 0.02816715 -0.05361774
0.0026081828 -0.06512295 -0.028769525 -0.02031399 -0.07332418 0.08325852 0.09269571 0.04979429
0.030276336 -0.01729413 -0.055662215 0.018568695 -0.010445115 0.053893927 -0.07189587 -0.0116880005
00000000: 59df 7fbd 2e90 8dbd c1e1 1abc 2b75 0b3d
00000010: f1f7 bf3d 804a 6e3c 1330 b2bd 99ec d13c
00000020: 63b7 953d 4404 76bc 7a64 cd3c 8780 21bd
00000030: 7f5b 4c3d a556 493d 51f3 43b8 fa40 093d
00000040: 7c7a 55bd ad3d 633d 1d36 98bd 8252 67bd
00000050: b8ba 8e3d ef28 b23d de93 07bc dda8 823d
00000060: 43f4 84bd 8a2c 2d3d f12a d1bc c387 e2bc
00000070: 8c43 97bd c212 383d 466d af3c 9274 043d
00000080: 312c 3abd 3e00 a63c 3769 1abd 4e6c 3dba
00000090: 1bed 983d b1ee 1abc d038 243c 3180 3fbc
000000a0: 1182 07bd 9417 ba3d e870 3537 e683 543d
000000b0: fedb 65bd 8342 a93d 0ab6 b23d acee 7cbc
000000c0: 70ec 51bc 9d55 4bbc 423b a03d 650c b5bc
000000d0: 4f6c 453c 277d a8bd c30f 183c 67d3 863d
000000e0: 1efc 853d 0bd0 0eba 1f20 8cbd 7c22 3a3d
000000f0: d703 5fbd 9e70 e83c e0ec a5bd 9db1 15bd
00000100: 52e1 3dba 06b3 d63c 652e a63d 7fb4 003c
00000110: cc80 32bd 71d3 203b cddd aabd 7ac2 80bd
00000120: 3f33 e93b a074 403d e3b4 6e3c 988f a43d
00000130: 64c7 85bd cf1f 823d a325 e2bc 0ca2 2bbc
00000140: 9fa0 c6bb b61c ffbc b1ff 953a 59dd 893d
00000150: bad9 af3c 8d3b fcbc 7ef0 893d 3081 aebc
00000160: e903 7bbd f149 6fbd 68ba 29bd 1ffc 893d
00000170: e9e1 3d3d 052b 633c da39 ebbb 59dc 90bd
00000180: 273b 9d3a a165 ba3d 5401 a03b a2ca b43d
00000190: 509b 9a3d 244a c1bd d83f c1bd 7bb3 c13c
000001a0: c294 8dbd eadf 723d d6a5 c5bd 5e33 bc3d
000001b0: 8253 8e3d e8e9 82bd 3092 c33d 9a37 dcbd
000001c0: 521b efbc ebf1 bbbd 11df 1dbd 89eb 0fbd
000001d0: d7b3 e4bc 4a99 a43d cf37 903d f1b9 a1bd
000001e0: 3ad0 c53c e417 a93d eb39 e1bc 5100 933c
000001f0: 53e4 5d3d dfb0 f13c 391f c53c b999 7e3b
00000200: cf56 1cbd eefe be3d 77ad 74bd 35cc 413d
00000210: 7783 0abd 1d09 663d a25b e33c 9493 233d
00000220: 7d68 7bbd 3fae 363d 2f4d d7bc a6fb 5dbd
00000230: b944 50bd 24d6 003d 65a1 803d 3f95 d1bc
00000240: 99f6 333c 24b2 383d 38e3 9b3c 03e2 83bd
00000250: 13b2 3abd 664e 973d 5456 99bb a653 79bc
00000260: 6c12 07bd 2de5 32bd bddd 06bd cbb6 a83d
00000270: 531f 833d 7b1c 2ebc 9fd1 aa3b 52a1 0cbb
00000280: 7265 85bc ae70 b43d 750f 13bd bfa7 27bd
00000290: d7f2 0bbd 672e ca3b e019 61bb 1988 853d
000002a0: 4c05 d3bc 794c b3bd 1360 453d defb 3fbc
000002b0: 85e9 2fbd 5620 8abd 993c bc3d 6b66 a5bd
000002c0: a8f6 61bc 6090 3fbd 20a3 b93d 3c69 87bc
000002d0: b907 323d 871c 153d 9f1e 7d3d ccf2 49bd
000002e0: 5a60 8ebd 1b8a 963d 670f 413c 3c21 493d
000002f0: 0de9 093d db5c 6a3d a0b6 af3b d187 8bbd
00000300: 7aba b4bd e306 833d 968d 913d 1839 50bd
00000310: 144a 8fbd 258f f9bb e652 f33b 1121 c2bc
00000320: da27 753d 78e1 58bd ecda 12bd 5b22 3fbd
00000330: f68d 0f3d a84b 3abd a8ba 883c d456 b33d
00000340: 0682 35bc 0465 d33c 905b 5e3d b2f3 5cbd
00000350: 21ba b7bc 79f5 943d 46e6 123d dfe5 77bd
00000360: eb5d 98bd 2dbb ea3c 91d7 803d c923 87bd
00000370: bde5 28bd 3d60 05bd adf4 b4bd 7b99 a1bc
00000380: 8171 54bd 0d42 813b c514 9abd b9bf 39b9
00000390: 3ea6 2e3d 5cae 12bd c249 78bd 8ff2 55bd
000003a0: ed78 a93c ecf6 7bbc ad9e f33c 3bd2 9e3b
000003b0: a253 c23c 873f 763d ccbe e63c 469e 5bbd
000003c0: 0cee 2a3b 2e5f 85bd 11ae ebbc 8669 a6bc
000003d0: fd2a 96bd 7183 aa3d 40d7 bd3d 19f5 4b3d
000003e0: 1406 f83c 6bac 8dbc 10fe 63bd 601d 983c
000003f0: fd21 2bbc e1bf 5c3d 243e 93bd 077f 3fbc

fc2.bias f4 [84]
-0.026713068 -0.044774607 -0.018943563 0.02890624 -0.080291845 0.1238117 -0.06375416 -0.0141103715
-0.062263276 0.23263271 -0.081648365 -0.097527 -0.05427771 0.11309727 0.14017002 0.04567868
0.07338201 0.12033549 0.05744408 -0.10711594 0.03395304 -0.046353284 -0.038844388 0.012184248
-0.037023596 0.21641377 -0.09120758 0.0043219533 0.018895768 -0.08230426 -0.04276594 -0.04093946
-0.01067666 0.10599994 0.048508096 0.0026792155 -0.06828879 -0.040293045 -0.022646617 0.16513006
-0.031165255 0.1105167 0.01237573 0.00871092 -0.037466366 0.10313607 0.11821611 0.009343265
-0.11173419 0.026056577 0.030600466 -0.101060756 0.15317091 0.012140268 -0.035914063 -0.0053909374
-0.022116153 -0.04472122 -0.031488087 0.07389962 -0.07151352 0.05499033 -0.040596806 -0.00501998
-0.086426325 0.042642843 0.06388224 0.06714573 0.13621573 -0.07082565 -0.09383664 0.08173305
0.057361264 0.079705186 0.064871795 0.10501092 0.019180428 -0.08064474 -0.0807454 0.061353225
0.08217542 -0.059915796 0.05054869 0.07391589
00000000: 5dd5 dabc 9465 37bd 882f 9bbc c7cc ec3c
00000010: 0d70 a4bd fd90 fd3d 8b91 82bd 302f 67bc
00000020: c707 7fbd 4537 6e3e 4237 a7bd 3cbc c7bd
00000030: 4e52 5ebd 8b9f e73d bb88 0f3e 9119 3b3d
00000040: 4f49 963d 7472 f63d 7c4a 6b3d 9a5f dbbd
00000050: 5812 0b3d f1dc 3dbd 4b1b 1fbd 71a0 473c
00000060: 0ea6 17bd 929b 5d3e 0acb babd 2c9f 8d3b
00000070: 4ccb 9a3c 238f a8bd 572b 2fbd 23b0 27bd
00000080: 28ed 2ebc 7f16 d93d 6db0 463d c795 2f3b
00000090: feda 8bbd 520a 25bd 6685 b9bc db17 293e
000000a0: 474e ffbc 9456 e23d 93c3 4a3c 3fb8 0e3c
000000b0: 5576 19bd 0139 d33d 4a1b f23d 7e14 193c
000000c0: e5d4 e4bd 9a74 d53c d4ad fa3c f1f8 cebd
000000d0: d6d8 1c3e fae7 463c a01a 13bd 76a6 b0bb
000000e0: ef2c b5bc 992d 37bd a7f9 00bd af58 973d
000000f0: ae75 92bd 8a3d 613d d648 26bd a57e a4bb
00000100: 4900 b1bd 43aa 2e3d b1d4 823d b383 893d
00000110: 237c 0b3e 0a0d 91bd 6d2d c0bd a863 a73d
00000120: a5f3 6a3d 793c a33d 81db 843d f70f d73d
00000130: 4620 9d3c 1229 a5bd d85d a5bd 854d 7b3d
00000140: 964b a83d 446a 75bd 250c 4f3d 3761 973d

fc3.weight f4 [10, 84]
0.067578726 0.0710535 -0.031813927 -0.04471383 0.035330407 0.040880147 0.07055815 0.07730122
-0.05223549 -0.08753989 0.10851612 -0.057063863 -0.062303264 0.07885199 -0.12024126 0.071881324
0.093817316 0.122706346 -0.054051325 0.11246364 0.13163692 -0.03361805 0.106279366 0.06296547
-0.018934611 -0.17272763 0.009104573 -0.19990632 0.12039556 -0.11207135 0.017642194 -0.18282102
-0.06927143 -0.042123612 0.11115305 -0.09948996 0.06565095 -0.028752796 0.01448069 -0.12032687
-0.037689198 -0.018284513 -0.13810161 -0.07756878 0.006142895 0.034163907 -0.10816473 -0.06444312
0.13049626 -0.051267374 0.075318694 -0.031285707 0.17688604 0.05073395 0.0686167 0.064485244
-0.18575501 -0.012170704 0.1095507 0.07866673 -0.046624586 -0.03425602 -0.022458779 0.0802974
0.10653727 0.0889082 -0.08263042 -0.07085985 0.06914553 -0.09829336 -0.04858549 -0.0125442045
0.11071371 -0.048628245 0.14034317 0.15695676 0.12888373 0.09495631 -0.10765448 0.0134985065
0.16436195 0.11481097 -0.02577086 0.061194047 0.031202774 -0.054087378 0.10192997 -0.046329293
0.13532256 -0.088274606 0.017191557 0.015640946 0.15648112 -0.0143206455 -0.025071144 -0.10254835
-0.1065004 0.049602587 -0.19774728 -0.09296058 -0.25399238 -0.29411614 -0.07015275 0.215604
-0.025037758 0.09500367 -0.12548628 0.013934787 0.107695915 -0.21264827 -0.012721488 -0.053348165
0.091471046 -0.076147884 0.08082279 0.014234732 -0.079509415 -0.1674102 -0.035636228 -0.07473251
0.160174 0.07119673 -0.04051947 -0.12388912 0.048065655 -0.025694292 0.037424073 0.10524306
0.20371307 -0.12537329 -0.06821019 0.2960905 -0.09275832 0.15809366 -0.01658734 0.16579814
0.071825035 -0.085035905 -0.013689088 0.06508918 0.012399107 0.15142655 0.10156298 -0.12983759
0.016767398 0.05931825 0.079639435 0.07427944 0.16051476 0.035404935 -0.15259151 -0.039311342
0.0758754 -0.04196637 0.045406837 0.030038454 -0.2579881 -0.09418607 -0.015185772 0.09426997
-0.088489704 -0.049224246 -0.04889388 0.016861418 -0.06270059 0.031678557 -0.12889603 -0.18292737
0.07930517 0.054409735 0.0007799564 -0.0049984404 -0.16748987 0.08063217 0.024267463 0.028508667
-0.17552504 0.24457628 -0.06696902 -0.12651181 0.07278974 -0.0077022817 -0.0039468366 -0.029351832
0.008533576 -0.03961538 -0.032014977 -0.14046074 0.030583145 0.12678064 -0.06359045 0.029732581
0.0050763004 0.23013683 -0.108220905 -0.022450002 -0.04800206 0.040265616 -0.09498968 0.059551165
0.10374916 0.044708762 -0.05316414 -0.02938319 0.0137763675 0.108811304 -0.07333493 0.07185352
-0.032429103 -0.055404708 0.00023601521 -0.16065516 -0.04722223 0.09172953 0.09652272 -0.04774574
-0.06447226 0.05802981 -0.04680076 -0.10032528 0.14943269 0.019406712 0.08740168 -0.02058048
0.06984843 -0.020117927 0.04924998 0.056560062 -0.00920451 0.07858993 0.0955734 0.14184186
-0.0021760007 -0.031664994 -0.08064293 -0.028252317 -0.06625319 -0.06704678 0.025282353 0.071107775
0.26974705 0.1552768 0.1488539 0.15286796 0.027517896 -0.080200195 -0.10645099 0.10834857
0.2231118 -0.17576042 0.13193953 0.07529694 -0.109760076 -0.050031777 0.09357638 0.07054002
00000000: b766 8a3d 7f84 913d 524f 02bd d925 37bd
00000010: 9eb6 103d f171 273d cb80 903d 1a50 9e3d
00000020: e2f4 55bd 1d48 b3bd b33d de3d ccbb 69bd
00000030: b531 7fbd 277d a13d 0d41 f6bd 8436 933d
00000040: 4b23 c03d 774d fb3d ec64 5dbd 5653 e63d
00000050: d4cb 063e 15b3 09bd ffa8 d93d 0af4 803d
00000060: c21c 9bbc 83df 30be 592b 153c 3eb4 4cbe
00000070: f391 f63d aa85 e5bd 5d86 903c 6f35 3bbe
00000080: 2ede 8dbd cf89 2cbd 36a4 e33d 64c1 cbbd
00000090: 0174 863d fc8a ebbc 6a40 6d3c ef6d f6bd
000000a0: fd5f 1abd 67c9 95bc 826a 0dbe 61dc 9ebd
000000b0: 574a c93b 74ef 0b3d 7885 ddbd c1fa 83bd
000000c0: d0a0 053e bdfd 51bd b040 9a3d 7125 00bd
000000d0: 9d21 353e 67ce 4f3d ea86 8c3d d710 843d
000000e0: 9036 3ebe a267 47bc 1e5c e03d 061c a13d
000000f0: 6cf9 3ebd 0a50 0cbd 79fb b7bc f772 a43d
00000100: 3630 da3d 8115 b63d 233a a9bd f81e 91bd
00000110: 2c9c 8d3d 074e c9bd 9401 47bd 3586 4dbc
00000120: dfbd e23d 692e 47bd 1fb6 0f3e 46b9 203e
00000130: 19fa 033e 7478 c23d f479 dcbd d728 5d3c
00000140: 804e 283e 0422 eb3d 691d d3bc 9ca6 7a3d
00000150: f69c ff3c ba8a 5dbd a9c0 d03d c9c3 3dbd
00000160: ff91 0a3e 51c9 b4bd 4fd5 8c3c 7121 803c
00000170: 963c 203e 24a1 6abc 0062 cdbc df04 d2bd
00000180: e21c dabd 152c 4b3d 437e 4abe 1e62 bebd
00000190: 4a0b 82be 6496 96be 3fac 8fbd 4cc7 5c3e
000001a0: fc1b cdbc 4991 c23d 7a7f 00be bc4e 643c
000001b0: ad8f dc3d 78c0 59be ca6d 50bc 9b83 5abd
000001c0: 2c55 bb3d 6cf3 9bbd 6b86 a53d cb38 693c
000001d0: d5d5 a2bd 946d 2bbe 4bf7 11bd 5c0d 99bd
000001e0: a704 243e 97cf 913d bef7 25bd 94b9 fdbd
000001f0: 7ee0 443d d67c d2bc fc49 193d ac89 d73d
00000200: 299a 503e db61 00be c9b1 8bbd 2d99 973e
00000210: 13f8 bdbd 4ee3 213e 2ce2 87bc fdc6 293e
00000220: 0119 933d 4e27 aebd 3248 60bc 7a4d 853d
00000230: a025 4b3c 900f 1b3e 4000 d03d 25f4 04be
00000240: c85b 893c b1f7 723d 001a a33d d21f 983d
00000250: fb5d 243e c404 113d f340 1cbe ee04 21bd
00000260: 9064 9b3d eee4 2bbd 85fc 393d 3413 f63c
00000270: 0417 84be a0e4 c0bd bfcd 78bc 9d10 c13d
00000280: 173a b5bd 5d9f 49bd f344 48bd f520 8a3c
00000290: 2b69 80bd 60c1 013d 52fd 03be 5051 3bbe
000002a0: c06a a23d bedc 5e3d fd75 4c3a f5c9 a3bb
000002b0: 7782 2bbe 7b22 a53d 8fcc c63c 028b e93c
000002c0: d6bc 33be 3472 7a3e 0e27 89bd 508c 01be
000002d0: ca12 953d 6c63 fcbb 7754 81bb 4173 f0bc
000002e0: 69d0 0b3c bd43 22bd 2322 03bd f1d4 0fbe
000002f0: 8189 fa3c c9d2 013e b63b 82bd be91 f33c
00000300: 1857 a63b fda8 6b3e eca2 ddbd 11e9 b7bc
00000310: cf9d 44bd 8fed 243d f389 c2bd eceb 733d
00000320: 717a d43d 8920 373d a4c2 59bd 04b5 f0bc
00000330: 46b6 613c 76d8 de3d a030 96bd f027 933d
00000340: 61d4 04bd 0cf0 62bd da7a 7739 c982 24be
00000350: 196c 41bd b1dc bb3d b4ad c53d 0991 43bd
00000360: 080a 84bd abb0 6d3d 27b2 3fbd 5777 cdbd
00000370: e204 193e d3fa 9e3c a7ff b23d 6598 a8bc
00000380: b20c 8f3d 5ace a4bc 59ba 493d 86ab 673d
00000390: 83ce 16bc c2f3 a03d fdbb c33d fe3e 113e
000003a0: 3c9b 0ebb 27b3 01bd 1f28 a5bd 6771 e7bc
000003b0: c1af 87bd d24f 89bd f01c cf3c f4a0 913d
000003c0: 491c 8a3e e200 1f3e 286d 183e 6b89 1c3e
000003d0: 366d e13c 0040 a4bd fa02 dabd dbe5 dd3d
000003e0: 6b77 643e 8afa 33be 281b 073e 4835 9a3d
000003f0: e4c9 e0bd 1fee 4cbd f9a4 bf3d 4977 903d

fc3.bias f4 [10]
-0.14632063 -0.20053911 0.22770509 -0.043431047 0.30218837 -0.22994576 0.20468819 -0.24337173
0.015926497 -0.24176502
00000000: 13d5 15be 205a 4dbe 862b 693e c1e4 31bd
00000010: 6fb8 9a3e e776 6bbe c899 513e 7036 79be
00000020: 4978 823c 4091 77be
