pytorch/model.pth (torch, 2887 bytes, 5 tensors)

weight f4 [4, 2]
0	0xbf0dabcc	-0.55340266
1	0x3d2bbc40	0.041927576
2	0xbeeac162	-0.45850664
3	0xbf0cc7fc	-0.5499265
4	0x3e28e85c	0.16494888
5	0xbf16288d	-0.58655626
6	0x3dddf2b0	0.108373046
7	0x3ecefb42	0.4042607

bias f4 [4]
0	0xbe051aa8	-0.1299845
1	0x3f185097	0.5949797
2	0x3e4cb01c	0.19989055
3	0xbe865790	-0.2623868

weight f4 [2, 4]
0	0x3ec2421e	0.37941068
1	0xbe083c18	-0.13304174
2	0x3ecc4814	0.3989874
3	0x3e03d2b0	0.1287334
4	0xbebf39e8	-0.37348866
5	0x3e82cd00	0.25547028
6	0xbef315fe	-0.47477716
7	0x3efe67dc	0.49688613

bias f4 [2]
0	0x3ee73c92	0.451634
1	0x3eae9534	0.34098208

weight f4 [1, 2]
0	0xbeb79834	-0.3585831
1	0xbefd5852	-0.49481446
